backend: tensorflow
class_name: Sequential
config:
- class_name: Conv2D
  config:
    activation: relu
    activity_regularizer: null
    batch_input_shape: !!python/tuple [null, 64, 64, 1]
    bias_constraint: null
    bias_initializer:
      class_name: Zeros
      config: {}
    bias_regularizer: null
    data_format: channels_last
    dilation_rate: &id001 !!python/tuple [1, 1]
    dtype: float32
    filters: 12
    kernel_constraint: null
    kernel_initializer:
      class_name: VarianceScaling
      config: {distribution: uniform, mode: fan_avg, scale: 1.0, seed: null}
    kernel_regularizer: null
    kernel_size: !!python/tuple [4, 4]
    name: conv2d_1
    padding: same
    strides: &id002 !!python/tuple [1, 1]
    trainable: true
    use_bias: true
- class_name: Conv2D
  config:
    activation: relu
    activity_regularizer: null
    bias_constraint: null
    bias_initializer:
      class_name: Zeros
      config: {}
    bias_regularizer: null
    data_format: channels_last
    dilation_rate: *id001
    filters: 6
    kernel_constraint: null
    kernel_initializer:
      class_name: VarianceScaling
      config: {distribution: uniform, mode: fan_avg, scale: 1.0, seed: null}
    kernel_regularizer: null
    kernel_size: !!python/tuple [5, 5]
    name: conv2d_2
    padding: same
    strides: *id002
    trainable: true
    use_bias: true
- class_name: Flatten
  config: {data_format: channels_last, name: flatten_1, trainable: true}
- class_name: Dense
  config:
    activation: relu
    activity_regularizer: null
    bias_constraint: null
    bias_initializer:
      class_name: Zeros
      config: {}
    bias_regularizer: null
    kernel_constraint: null
    kernel_initializer:
      class_name: VarianceScaling
      config: {distribution: uniform, mode: fan_avg, scale: 1.0, seed: null}
    kernel_regularizer: null
    name: dense_1
    trainable: true
    units: 100
    use_bias: true
- class_name: Dense
  config:
    activation: relu
    activity_regularizer: null
    bias_constraint: null
    bias_initializer:
      class_name: Zeros
      config: {}
    bias_regularizer: null
    kernel_constraint: null
    kernel_initializer:
      class_name: VarianceScaling
      config: {distribution: uniform, mode: fan_avg, scale: 1.0, seed: null}
    kernel_regularizer: null
    name: dense_2
    trainable: true
    units: 1024
    use_bias: true
keras_version: 2.1.6
